checkpoints/pinn_model.pth (torch, 4774 bytes, 6 tensors)

net.0.weight f4 [20, 1]
-0.3676025 0.4212496 0.55493015 -0.88259524 0.25179952 1.0061525 0.36797106 0.6883518
0.2237445 0.70688945 0.2571461 -0.37963122 0.5132189 0.36554465 -0.6039624 0.6316614
0.004905014 -0.9618971 -0.6774551 -1.051901
00000000: 6536 bcbe 07ae d73e e70f 0e3f c3f1 61bf
00000010: deeb 803e 9bc9 803f b466 bc3e d337 303f
00000020: 471d 653e b5f6 343f a7a8 833e 065f c2be
00000030: 5062 033f ab28 bb3e 489d 1abf 90b4 213f
00000040: 3dba a03b e33e 76bf b36d 2dbf b1a4 86bf

net.0.bias f4 [20]
0.66218185 -0.5739434 0.82659656 -0.047920153 0.18841542 -0.45604986 0.7648698 -0.2193242
0.50968474 0.22765118 0.77060014 -0.15683687 -0.67069966 1.0431589 -0.0909381 -0.83949924
0.010600069 -0.4553731 0.0033617876 0.044640325
00000000: c084 293f f4ed 12bf d59b 533f ec47 44bd
00000010: f9ef 403e 5e7f e9be 82ce 433f 8696 60be
00000020: b37a 023f 641d 693e 0d46 453f d899 20be
00000030: f9b2 2bbf 3b86 853f c13d babd 6ce9 56bf
00000040: e9ab 2d3c aa26 e9be 7051 5c3b c6d8 363d

net.2.weight f4 [20, 20]
-0.03267337 0.27104256 0.13621855 -0.11518165 -0.041241366 -0.10567518 0.00683068 -0.04192384
-0.16400272 -0.15266603 -0.1932759 -0.04224963 -0.08464135 -0.1754192 0.09773511 -0.10953336
0.0920037 -0.07335474 0.20485765 0.14463983 -0.01966115 0.1655036 -0.11286079 -0.1175256
0.16591293 -0.06338956 0.041707862 0.04703071 -0.07328779 0.08623 -0.1862166 -0.11169165
-0.2383405 -0.07853643 0.117128916 -0.009032366 -0.17782931 -0.1224923 0.13684528 -0.18819371
-0.032410968 -0.02338893 0.1569327 0.08401562 -0.12631159 -0.06634247 -0.16701552 0.14315939
0.1453179 0.03826657 -0.083169006 -0.14262572 0.13710305 -0.02682421 0.17388545 0.099126816
-0.12894082 0.17547862 0.18159181 0.16266766 0.072338164 -0.10332549 0.1938334 0.051776778
-0.084314704 -0.01391469 0.04657397 0.15779608 0.27088788 -0.14604616 -0.06543178 -0.18161191
-0.14858697 -0.13650641 -0.27034748 0.04932275 -0.11069847 -0.18661955 0.120027095 -0.25438008
-0.03606993 -0.05425694 -0.121222965 0.046998404 0.1132914 0.026326118 0.15522538 0.12624079
0.11379476 0.21398315 0.040366057 -0.21042322 -0.19172563 -0.11891722 0.03047638 -0.10529538
-0.23448306 -0.18772525 0.053117633 -0.2128296 0.053085305 -0.23574217 0.07690826 -0.013629961
-0.089815244 0.10193436 -0.118396446 0.16345145 -0.1423851 0.09548849 -0.06714937 -0.0044650445
-0.0929383 -0.13154157 -0.033453412 0.11049682 -0.18273503 -0.07510929 0.11345044 0.16568483
0.06129816 0.2213285 -0.13184406 0.18302351 -0.24055316 -0.23560008 0.009225888 0.03016249
-0.26903608 0.003851254 -0.1543101 0.22009271 0.04917464 -0.05792352 0.22302634 0.25479412
-0.1077294 -0.07267195 -0.038665023 -0.040304054 -0.22176336 0.10923924 -0.26507065 0.16343799
-0.00681212 -0.12452174 0.14225663 -0.21325786 0.030535715 -0.012694582 0.006168277 0.11441098
0.036998674 -0.25575596 -0.13365075 -0.1132046 0.19063225 -0.040188044 0.033131916 0.119145066
-0.00024953368 -0.16386415 0.013377435 0.026187688 -0.13670222 -0.052717254 -0.18571533 0.08961468
-0.27386284 -0.10889667 -0.11273297 0.13258381 -0.17309092 -0.016192792 -0.09767326 -0.10985787
0.028539479 0.09072605 -0.094724454 0.0991252 -0.07464406 0.20077816 -0.19978057 0.25164896
-0.10712981 -0.23307599 0.074907556 -0.026154991 -0.008807055 -0.060204078 -0.11570335 0.019836297
0.14379269 -0.045067053 -0.12670602 -0.1218562 -0.12182961 -0.08525386 -0.16241015 0.00027755555
-0.047225527 0.03767162 0.1447156 -0.064377815 0.1944523 0.19939497 -0.13565233 -0.100908816
0.00046242616 0.032749202 -0.16774501 0.07684851 0.01733066 0.21489167 0.084786706 0.1014449
-0.018874973 0.07170485 -0.0073014097 -0.09660839 0.080738544 0.21228115 0.14319156 -0.015752342
-0.22969548 0.02352857 -0.25868058 -0.1646902 -0.12499356 -0.13478033 -0.05417407 0.11146299
-0.16539876 -0.1078707 -0.16870278 -0.0482689 -0.1713153 0.034234773 0.18402351 -0.10827458
0.035416517 -0.24885574 0.034416102 0.1681128 -0.0016067878 -0.012395746 -0.095661916 0.029906359
-0.034144428 -0.16698623 0.08392266 -0.21574396 0.109096885 0.26945916 0.12896653 0.10512681
00000000: 83d4 05bd 17c6 8a3e e07c 0b3e 5be4 ebbd
00000010: b5ec 28bd 3b6c d8bd e6d3 df3b 55b8 2bbd
00000020: 54f0 27be 7c54 1cbe 1eea 45be f30d 2dbd
00000030: 7258 adbd 17a1 33be 5829 c83d 0753 e0bd
00000040: 706c bc3d 033b 96bd 34c6 513e 771c 143e
00000050: 6c10 a1bc c779 293e 8f23 e7bd 43b1 f0bd
00000060: 14e5 293e 63d2 81bd ddd5 2a3d 46a3 403d
00000070: e917 96bd 5b99 b03d 90af 3ebe 97be e4bd
00000080: 880f 74be b5d7 a0bd 49e1 ef3d 7dfc 13bc
00000090: e318 36be 3edd fabd 2b21 0c3e dab5 40be
000000a0: 5dc1 04bd 249a bfbc f7b2 203e 6210 ac3d
000000b0: d357 01be 90de 87bd 1e06 2bbe 6098 123e
000000c0: 37ce 143e 68bd 1c3d 8354 aabd 7a0c 12be
000000d0: be64 0c3e 72be dbbc 070f 323e 0003 cb3d
000000e0: 1009 04be abb0 333e 34f3 393e 5a92 263e
000000f0: 0826 943d 519c d3bd 437c 463e e313 543d
00000100: 30ad acbd 71fa 63bc 59c4 3e3d 4c95 213e
00000110: d1b1 8a3e 208d 15be 1901 86bd 79f8 39be
00000120: 2f27 18be 56c8 0bbe fc6a 8abe a706 4a3d
00000130: e1b5 e2bd 3219 3fbe c4d0 f53d 1b3e 82be
00000140: 10be 13bd 863c 5ebd bf43 f8bd 6681 403d
00000150: 5205 e83d dfa9 d73c 67f3 1e3e 4445 013e
00000160: 3a0d e93d 661e 5b3e e156 253d 2f79 57be
00000170: b953 44be df8a f3bd 9aa9 f93c 1ba5 d7bd
00000180: 541c 70be 0c3b 40be e091 593d 01f0 59be
00000190: fa6f 593d 6566 71be 1482 9d3d 3350 5fbc
000001a0: 0ef1 b7bd f6c2 d03d d679 f2bd d15f 273e
000001b0: 66cd 11be 788f c33d 9c85 89bd 824f 92bb
000001c0: 6f56 bebd d5b2 06be 7206 09bd 284c e23d
000001d0: e41e 3bbe e6d2 99bd b458 e83d 49a9 293e
000001e0: c813 7b3d f0a3 623e 2102 07be 846a 3b3e
000001f0: 9153 76be 2641 71be 2e28 173c 5417 f73c
00000200: 19bf 89be 5265 7c3b 7803 1ebe fc5f 613e
00000210: 596b 493d 3741 6dbd 0461 643e 6074 823e
00000220: 3ba1 dcbd 08d5 94bd 375f 1ebd dd15 25bd
00000230: ef15 63be d3b8 df3d 57b7 87be 4a5c 273e
00000240: 3438 dfbb 4105 ffbd b9ab 113e 4560 5abe
00000250: 0926 fa3c f0fc 4fbc 421f ca3b 4e50 ea3d
00000260: ec8b 173d 72f2 82be bedb 08be d0d7 e7bd
00000270: 1a35 433e 389c 24bd 55b5 073d 5402 f43d
00000280: d8d3 82b9 01cc 27be 072d 5b3c 9087 d63c
00000290: abfb 0bbe 0cee 57bd 292c 3ebe e787 b73d
000002a0: c037 8cbe 3805 dfbd 8be0 e6bd 0dc4 073e
000002b0: bf3e 31be bfa6 84bc eb08 c8bd 2afd e0bd
000002c0: a0cb e93c 94ce b93d e5fe c1bd 2702 cb3d
000002d0: fcde 98bd ca98 4d3e 4793 4cbe 22d8 803e
000002e0: e066 dbbd 79ab 6ebe 2269 993d fe42 d6bc
000002f0: 774b 10bc 8d98 76bd e1f5 ecbd bb7f a23c
00000300: 643e 133e 3b98 38bd 39bf 01be be8f f9bd
00000310: cd81 f9bd 9399 aebd d94e 26be e084 9139
00000320: 8e6f 41bd 8e4d 1a3d 5430 143e 84d8 83bd
00000330: 811e 473e 322e 4c3e 72e8 0abe 48a9 cebd
00000340: ca71 f239 0724 063d 59c5 2bbe c062 9d3d
00000350: 07f9 8d3c 900c 5c3e a7a4 ad3d 58c2 cf3d
00000360: b09f 9abc fed9 923d aa40 efbb 9fda c5bd
00000370: 405a a53d 3b60 593e cfa0 123e 0e0b 81bc
00000380: 4b35 6bbe fdbe c03c c871 84be 8ca4 28be
00000390: a0fc ffbd db03 0abe a1e5 5dbd b546 e43d
000003a0: 4b5e 29be 50eb dcbd 6cc0 2cbe 9cb5 45bd
000003b0: 476d 2fbe c339 0c3d a970 3c3e 10bf ddbd
000003c0: e910 113d 0ad4 7ebe e6f7 0c3d c325 2c3e
000003d0: da9a d2ba 8717 4bbc 65ea c3bd 2efe f43c
000003e0: 07db 0bbd 70fe 2abe a5df ab3d fceb 5cbe
000003f0: 306e df3d 8df6 893e cd0f 043e ba4c d73d

net.2.bias f4 [20]
-0.06651141 -0.037048418 0.12007532 0.1823818 0.13853039 -0.10083834 -0.21215269 -0.22925894
-0.08108383 -0.13994715 0.2184484 -0.091049455 -0.11580387 -0.057661742 0.059196416 -0.060655076
-0.16846175 0.16740027 -0.09867423 0.030304398
00000000: 2237 88bd 15c0 17bd 0dea f53d 4bc2 3a3e
00000010: e9da 0d3e 5584 cebd 8e3e 59be dbc2 6abe
00000020: 470f a6bd 4e4e 0fbe f0b0 5f3e 2378 babd
00000030: 942a edbd b82e 6cbd f177 723d 7571 78bd
00000040: 3d81 2cbe fa6a 2b3e b715 cabd ee40 f83c

net.4.weight f4 [4, 20]
-0.03246289 0.03924956 -0.034002606 0.18243288 -0.16103373 0.14826347 0.012175713 0.08074823
-0.0501825 0.089241944 0.124603 0.0314296 -0.21901898 -0.17799772 0.010122801 0.039241165
0.02010763 -0.16118734 -0.014087127 -0.010413514 0.20644431 0.0053927405 0.24504003 0.10690364
0.004365768 -0.07877019 0.015140576 0.17081 0.14382723 0.14987548 0.048880704 -0.18253294
0.047726598 -0.1151957 0.14902888 -0.08154328 -0.022809066 -0.17038856 -0.046454504 -0.1273906
0.05736154 -0.01579985 0.15839937 -0.058379214 -0.010522624 0.13899137 -0.0074269925 0.011827507
-0.036915675 0.24915689 -0.13617377 -0.03338851 -0.0077682836 0.11495799 -0.037558787 -0.0968433
-0.17894901 0.18319319 -0.032349583 0.16310719 0.13035227 0.0058494858 0.14432494 -0.23921815
-0.1276572 -0.065666474 0.18721643 0.07522346 0.16333948 0.26296052 -0.2011652 0.17498742
-0.14404283 0.19079465 0.20011659 -0.06248091 -0.16841553 -0.045929596 -0.11285215 0.061225053
00000000: cff7 04bd 26c4 203d 5146 0bbd afcf 3a3e
00000010: 07e6 24be 61d2 173e a47c 473c 545f a53d
00000020: 2a8c 4dbd 7bc4 b63d dc2f ff3d 53bc 003d
00000030: 8346 60be 0945 36be 1bda 253c 58bb 203d
00000040: c2b8 a43c 4b0e 25be b1cd 66bc 729d 2abc
00000050: 2366 533e 96b5 b03b c6eb 7a3e 4cf0 da3d
00000060: b70e 8f3b 4452 a1bd 2e10 783c d1e8 2e3e
00000070: 7247 133e f578 193e 2237 483d eae9 3abe
00000080: f77c 433d b9eb ebbd 079b 183e 2a00 a7bd
00000090: 14da babc 577a 2ebe 1447 3ebd ae72 02be
000000a0: eff3 6a3d b06e 81bc 7233 223e 0b1f 6fbd
000000b0: 1567 2cbc c153 0e3e 215e f3bb 29c8 413c
000000c0: e434 17bd fc22 7f3e 2371 0bbe 64c2 08bd
000000d0: 168d febb 186f eb3d 3ed7 19bd c855 c6bd
000000e0: 693e 37be ff96 3b3e ff80 04bd 9205 273e
000000f0: 117b 053e 0bad bf3b ebc9 133e 9af5 74be
00000100: 92b8 02be 257c 86bd aab5 3f3e c20e 9a3d
00000110: 7742 273e c3a2 863e 40fe 4dbe e72f 333e
00000120: f77f 13be ac5f 433e 5deb 4c3e fceb 7fbd
00000130: 1f75 2cbe ac20 3cbd 071f e7bd 1fc7 7a3d

net.4.bias f4 [4]
0.13526928 0.15308753 0.15419953 -0.0072194478
00000000: 0884 0a3e fac2 1c3e 7be6 1d3e 1e91 ecbb
